CHATXD V3/modelo_chatbot.pth (torch, 330574 bytes, 6 tensors)

l1.weight f4 [8, 3858]
000000 40 42 e8 be 69 05 e4 be 4f bc c0 bd 4f 75 d0 3e
       -0.45363045 -0.44535378 -0.09410917 0.407145
000010 64 f1 88 be 4b 3d 9c be 32 82 ef be 58 1e 87 3e
       -0.26746666 -0.30515513 -0.4677902 0.26390338
000020 3b 54 71 be 7c 43 9d be 9e ec a9 3e 3a 4c 29 be
       -0.23567288 -0.3071555 0.33188337 -0.16532984
000030 3b fa 38 be 0e c8 0e bf cf 2d 2e 3f 51 b0 da be
       -0.18064205 -0.5577401 0.6803865 -0.42712644
000040 85 7c dc 3c 0d bf 1e be de 2e 05 bf 04 75 ed be
       0.026914844 -0.15502568 -0.5202464 -0.46378338
000050 57 15 fe be cb 20 8d be 9f 35 f9 bd df 08 21 3c
       -0.49625656 -0.27564082 -0.121684305 0.009828775
000060 bb b1 d2 3f 48 29 bd bf 8e b4 bc 3f 90 5a df be
       1.6460489 -1.4778223 1.4742601 -0.4362378
000070 b0 78 80 3e 01 59 a2 3f 04 32 08 3f b0 ae 96 3d
       0.25092077 1.2683412 0.5320132 0.07357538
000080 f7 18 ad be 7d ff 6b be 43 0a 8e 3e 5a d4 b2 3f
       -0.3380811 -0.2304668 0.27742204 1.3971055
000090 fb 98 4e 3f bb e6 3c be 5f 46 63 3e a0 dc 9d be
       0.8070218 -0.18447392 0.22194813 -0.30832386
0000a0 a5 34 8d 3c 5c d1 1a 3d 4a 51 bf bf f0 26 27 bf
       0.017237017 0.037797317 -1.4946682 -0.6529379
0000b0 0e c4 c8 bf f9 40 19 3e be 56 a0 3a d7 c9 cf bc
       -1.5684831 0.14966191 0.0012232882 -0.0253648
0000c0 47 45 b5 be 34 0d d0 bd 31 a1 2e 3f 09 65 86 3f
       -0.35404417 -0.10158768 0.6821471 1.0499583
0000d0 d5 07 08 3f 3f 70 90 be 9b 18 66 3f 12 e1 9b 3f
       0.5313695 -0.28210637 0.89881295 1.2178061
0000e0 52 5f 40 bf 18 cc 9e be c5 55 9e 3e 97 15 1c 3e
       -0.7514545 -0.31015086 0.30924812 0.15242611
0000f0 7c 38 82 3d a7 57 24 3d bf 42 b1 be 67 97 77 be
       0.0635843 0.040122654 -0.34621236 -0.24178849
000100 6c ab 4b be 44 88 ce 3e 8d 45 76 bc 04 ad 90 3e
       -0.19889611 0.40338337 -0.015031231 0.28257
000110 dd 61 49 3e 10 6c 05 bf 0d d4 a0 bf 5b c6 34 bf
       0.19666238 -0.52118015 -1.2564713 -0.70615166
000120 de 83 97 be c3 ab 1d bc 05 91 9a 3e e5 5b e3 3d
       -0.29592794 -0.009623471 0.30188766 0.11101512
000130 24 57 fb 3e fd 34 9d 3f a5 cd 32 bd 28 19 ed 3d
       0.4908992 1.2281796 -0.04365315 0.11577064
000140 ec a4 68 3f 91 9e 47 3f 4c 2c 76 bc 7a 58 9a bd
       0.9087665 0.7797633 -0.01502521 -0.07536407
000150 dc 2f 36 3f 52 71 08 3f 44 4c 19 3f 91 0b 95 bd
       0.7116678 0.53297913 0.59882 -0.07277597
000160 75 53 e1 3e d4 75 b9 be 85 d2 ab 3f dd a6 e0 3e
       0.44008985 -0.36222708 1.342362 0.43877307
000170 d1 0f 88 3f 3f c7 d0 3f d2 64 23 bc 3b 3a 31 bf
       1.0629827 1.6310805 -0.009972768 -0.6922948
000180 97 d0 e7 be 41 51 76 be b1 04 4c bf e2 98 d7 be
       -0.4527633 -0.24054433 -0.7969466 -0.42108828
000190 78 44 bc bf 0c cc ee bd 1b ed a7 3d 62 1b 4c bf
       -1.4708395 -0.116600126 0.08199521 -0.7972928
0001a0 5c c3 d8 bd 3b 81 e9 3e 0c 4a ff 3e d1 35 97 3f
       -0.10584137 0.45606408 0.4986118 1.1813298
0001b0 7f 3f 69 3e af 1c 04 3f 1a d9 00 bf ef 42 19 be
       0.22778128 0.5160627 -0.5033127 -0.1496694
0001c0 7c 10 d2 3f b0 74 19 3e da a0 eb 3e 3d ad a3 3e
       1.6411281 0.14985919 0.46021158 0.31968108
0001d0 e0 5a df be 30 67 a4 3d c3 22 92 3f 07 8a 36 3f
       -0.4362402 0.08027494 1.1416858 0.71304363
0001e0 e9 6d 0c 3d bb 60 cf be 93 67 96 bc f8 20 cf 3d
       0.034284506 -0.40503487 -0.018359935 0.1011371
0001f0 8d 38 94 bd b3 26 f5 3e 55 2e 74 3f f6 af 4a 3d
       -0.07237349 0.47881088 0.953832 0.049484216
000200 e8 67 c4 3b 65 60 92 3e fb 51 ca 3d 4d b1 8f 3f
       0.005993832 0.28589168 0.09878918 1.1225983
000210 68 fd 8a 3e c1 6f 2a 3f a1 35 42 3f e7 ef e1 be
       0.2714646 0.6657677 0.7586308 -0.44128343
000220 6a 1c fc 3e ae 4f 6f be 74 e0 58 be 18 01 a9 bb
       0.49240428 -0.23370239 -0.21179372 -0.005157601
000230 38 75 02 3f 49 ae 22 40 79 16 0f 40 a1 61 61 3f
       0.5096011 2.5418875 2.2357466 0.88039595
000240 e6 6e a1 3e a0 68 a9 3e a4 c5 1d bf 30 82 d7 be
       0.3152992 0.33087635 -0.616297 -0.42091513
000250 15 07 24 bf 3b 21 20 bf f3 4a 24 3f fa d5 d3 bd
       -0.64073306 -0.62550706 0.64176863 -0.10343547
000260 54 53 35 3e c8 0d 1e be 1f e9 52 3e eb c1 a4 be
       0.17707568 -0.15434945 0.20596741 -0.32179198
000270 06 39 65 3f 65 32 18 3c 75 f3 4e 3e 7e 8d 12 3f
       0.89540136 0.009289359 0.20210059 0.5724715
000280 45 c5 fa 3d 78 7a bb 3e c0 7b f1 3d fd 44 e7 bc
       0.122446574 0.36616874 0.117911816 -0.028231138
000290 58 14 72 3e 6b a7 2a bd ca 13 16 be 5d d4 49 3e
       0.23640573 -0.04166357 -0.14655986 0.19709916
0002a0 6c b2 7d bb a2 0d de bd 95 3f 41 3f 1a 52 30 3f
       -0.0038711084 -0.10842444 0.75487643 0.6887528
0002b0 2e ba 7b 3c fd ab e9 3e 20 c0 9c 3d ed ec 77 3e
       0.015364213 0.4563903 0.076538324 0.24211474
0002c0 20 83 34 bd 9d d0 43 3f 7e 7c 05 bf 1f 29 04 be
       -0.044070363 0.76490194 -0.52143085 -0.12906311
0002d0 97 24 06 3f e5 8d 32 3e b9 46 dd 3e a2 6e 60 3f
       0.5239958 0.17436941 0.4321802 0.8766881
0002e0 37 c8 e8 3e 4a 13 b8 3e 26 30 0d be 4a 51 44 bf
       0.45465252 0.35952216 -0.13787898 -0.7668654
0002f0 28 73 1f be 5c 3c 51 3c fb c4 c2 3d be ad 59 be
       -0.15571272 0.012770738 0.09510227 -0.21257684
000300 4e 2a 0a bf 05 b5 b9 3e 8f a2 4d 3e 0f 18 91 bf
       -0.539708 0.3627092 0.20081542 -1.1335467
000310 ba f4 98 3e 08 14 19 be b5 d8 24 3f ef 4c c9 bc
       0.29874212 -0.14949048 0.6439317 -0.024572818
000320 da 26 a8 3f 77 18 11 3f 2c 65 12 40 1f a3 5d 3f
       1.3136857 0.56677955 2.287425 0.8657703
000330 0f 4d 8b 3d df 28 e3 be 6e 3d 9c bd 4e c3 bb be
       0.06801807 -0.4436712 -0.07628904 -0.36672443
000340 29 4a 5e be 18 03 4a be 45 64 c4 3e 8d f2 5f 3f
       -0.21707977 -0.19727743 0.3835775 0.8747948
000350 3e b5 9d 3f a0 cc 23 bf 5a a9 c5 be b2 ab 06 3f
       1.2320936 -0.6398411 -0.38605767 0.52605736
000360 ba 13 a7 bd 26 45 89 bf 87 75 f9 bd 07 70 7b 3f
       -0.081580594 -1.0724227 -0.1218062 0.98217815
000370 0b bf 02 be e4 ff 4d 3f fb b2 33 3f 74 6b 82 bf
       -0.1276819 0.80468583 0.7019498 -1.0189042
000380 22 54 07 40 00 ef 5a 40 39 74 0d 3f dc 0d 9f 3f
       2.11451 3.4208374 0.55255467 1.2426105
000390 d6 69 5d bc 25 ba b2 bd 5b 2b 54 be 64 4c 70 be
       -0.013514003 -0.087269105 -0.20719664 -0.2346664
0003a0 7e 1d f6 3e 34 2a 39 bf 7f d8 2b 3f 9d 44 3a 3e
       0.48069376 -0.7233002 0.6712722 0.18190236
0003b0 ea ab 96 3e 7c e5 79 be d7 a7 5e bf c6 26 23 bd
       0.29428035 -0.24403948 -0.86974853 -0.0398319
0003c0 b0 29 79 3e 07 6a 0d 3e 5b 86 06 3e d6 2a 1f 3f
       0.24332309 0.13809977 0.1313719 0.6217474
0003d0 4a 6a 97 3f 0f 71 a3 be 20 1b 62 3f bd fe 22 3e
       1.1829312 -0.31922194 0.8832264 0.15917487
0003e0 21 09 53 3e af 69 15 bc 24 ee f7 3e b0 db 3d 3b
       0.20608951 -0.009119435 0.48423874 0.0028970055
0003f0 3f a4 ed 3e 8c 86 86 3f ce 76 8b be 92 9d 92 be
       0.46414372 1.050981 -0.27239078 -0.28635842

l1.bias f4 [8]
000000 9a 55 60 3f ed 47 94 3f a1 21 50 3f 3e 6a 4b 3f
       0.8763062 1.158445 0.81301314 0.7945899
000010 ea 2a 8d 3f ff db c9 3f e5 ab 71 3f 37 df b7 3e
       1.1028721 1.5770262 0.94402915 0.35912487

l2.weight f4 [8, 8]
000000 f0 d3 03 ba dd f9 2d 40 59 7e 93 40 9c b5 2b bf
       -0.00050288346 2.7183754 4.6091733 -0.6707399
000010 8a d1 5a 40 d2 1b 3a c0 93 2e 42 bf 3d 9e dc 3f
       3.4190392 -2.907948 -0.75852317 1.723579
000020 ff 53 c3 3f 50 6c 42 3f 47 06 62 3f 8f fa e7 bf
       1.5260009 0.7594652 0.8829083 -1.812334
000030 c6 34 9e bf bf 96 d9 be 02 98 1f 40 e9 ea 10 41
       -1.2359855 -0.42497823 2.4936528 9.057351
000040 95 63 1a 40 24 7f 8b 40 cd 92 e9 bf 50 90 5e 40
       2.412328 4.35927 -1.8247925 3.4775581
000050 20 69 61 be 3c e1 45 c0 05 f6 84 3f a8 1f 81 bc
       -0.22012758 -3.0918722 1.0387579 -0.015762165
000060 ed da 8d 40 b1 4d 97 be ee 8a c7 40 d4 e8 07 be
       4.4329743 -0.2955146 6.235709 -0.1327241
000070 83 2b 6a c0 07 f6 96 bd 2e 1a d6 be 10 e4 46 bf
       -3.6589057 -0.07371145 -0.4181685 -0.77691746
000080 95 a6 87 be 31 da 49 3f 9a cc fb 3f b7 88 c6 3f
       -0.2649428 0.7884856 1.9671814 1.5510472
000090 09 78 f3 3f 19 17 84 c0 b2 35 30 40 b1 c9 42 3e
       1.9021007 -4.1278195 2.7532773 0.19022252
0000a0 00 e3 b5 3f 28 ea 4e c0 74 16 b7 3f 00 81 89 40
       1.42099 -3.2330418 1.4303727 4.296997
0000b0 3e 2f 1f 40 49 6e da bf 8a af 0d c0 66 96 7a 40
       2.4872584 -1.7064906 -2.213839 3.9154296
0000c0 06 b1 c7 3f 7e af 85 c0 9d 15 8c 3f 8e 7f 61 40
       1.5600898 -4.1776724 1.0944096 3.5234103
0000d0 31 85 a7 bf bf ee ce bf 52 08 b5 40 09 42 88 bb
       -1.3087522 -1.616661 5.6572657 -0.0041582626
0000e0 10 99 06 41 11 5b 0a bf 20 33 04 c0 78 5d 47 40
       8.412369 -0.54045206 -2.0656204 3.1150799
0000f0 7f d4 59 40 78 1c c3 3f ee 66 22 c0 6b b6 9f 3f
       3.4035947 1.5243063 -2.5375323 1.2477545

l2.bias f4 [8]
000000 59 97 40 be 02 a7 04 c0 02 56 8e bf 42 69 f0 3f
       -0.18807735 -2.0726933 -1.1119998 1.8782122
000010 88 02 b7 bf 78 3d 77 3f 77 26 dd 3e 19 2a 7e c0
       -1.4297647 0.9657817 0.4319341 -3.9713194

l3.weight f4 [1929, 8]
000000 1d 93 65 bf bc 37 fa c0 df 4d b1 3e 4a 3a bf c0
       -0.896776 -7.8193035 0.34629723 -5.9758654
000010 4d fc 3d be 81 3e 32 bf 65 9c 9f bf d5 39 90 bf
       -0.18553276 -0.69626623 -1.2469603 -1.1267649
000020 ec 8c 30 3d 97 4d f7 bf 39 bf 45 bf c0 ff ae bf
       0.043103144 -1.9320554 -0.7724491 -1.3671799
000030 08 c9 30 be bc cf 84 bf a3 aa 6c bf 6d 59 b1 bf
       -0.17264187 -1.0375896 -0.9244787 -1.3855416
000040 47 31 d0 c0 c6 2c 99 bf 06 31 13 3e 3e 1f 14 bf
       -6.5060153 -1.1966789 0.1437417 -0.5786017
000050 b5 74 4b bf 1c 6b 79 bf de 78 36 be 60 a3 a6 bf
       -0.79474956 -0.9742906 -0.17819545 -1.3018608
000060 b3 a8 a7 c0 d6 c0 5f bf b0 e7 15 bd 43 d0 31 bf
       -5.239343 -0.8740362 -0.036597908 -0.6945841
000070 e8 91 02 3f fa 18 67 bf 29 17 b3 3e 57 d9 40 c0
       0.51003885 -0.90272486 0.34978607 -3.0132654
000080 f8 b5 bf be 31 56 9b 3d d3 07 46 c0 1d e5 10 bf
       -0.3744352 0.07584799 -3.0942276 -0.565996
000090 bc 68 fd 3d aa 3c bb 3e 6b 6a 07 bf 64 12 96 c0
       0.12373492 0.3656972 -0.52896756 -4.689745
0000a0 f8 8a 99 bf 9d ce 02 3f f2 2b 08 bf f7 ab 7c bf
       -1.1995535 0.51096517 -0.53192055 -0.986999
0000b0 10 7f 1d c1 5a 1f 04 bf ee 38 29 bf dc 1e 12 c0
       -9.843521 -0.5161034 -0.6610249 -2.2831335
0000c0 e1 d0 18 3e 39 7e 69 bf 30 08 69 3e 9a 49 d2 bf
       0.14923431 -0.91208225 0.2275703 -1.6428711
0000d0 6b 54 5b 3e 3c b2 ab bf 80 6e 96 3d 4c af 43 c1
       0.21418922 -1.3413768 0.07345295 -12.230297
0000e0 1e 58 26 bf 34 02 1d bf a2 86 95 3e 0b f6 30 c0
       -0.64978206 -0.61331487 0.2920428 -2.7650173
0000f0 8c f5 ed 3e 10 c1 08 c0 14 ec ac be 6e 8e 09 c0
       0.464764 -2.1367836 -0.33773863 -2.1493182
000100 7b 5c 87 bf 9f 8b 3c bf 0f 2e 1e c0 79 c2 ce bd
       -1.0575098 -0.73650545 -2.4715612 -0.100956865
000110 62 e7 58 bc a1 17 7b bf 70 21 ad 3e 82 48 21 c0
       -0.01323876 -0.9808293 0.33814573 -2.5200505
000120 ed 55 99 bf db 1d 1c bf ec 6a ed 3c ee a5 40 bf
       -1.1979347 -0.60983056 0.028981648 -0.7525319
000130 e4 1d a0 3e 5a 45 b4 bf 10 d6 cb 3e 07 73 f2 c0
       0.31272805 -1.4083664 0.39811754 -7.5765414
000140 c6 5a eb bf 2a 73 bf bf ce 8b e6 be fd 9d 03 3e
       -1.8387077 -1.495702 -0.45028538 0.12853236
000150 fc 93 b3 be 48 3f 87 bf 5c 05 d2 3c 63 86 e2 bf
       -0.3507384 -1.0566187 0.025637321 -1.7697262
000160 2c b4 05 c1 a8 07 f3 bf 82 09 07 bf 56 6a 93 be
       -8.356487 -1.8986712 -0.5274888 -0.28792065
000170 c4 5a 18 3c ce 8d f6 be c4 6a 2c 3e fd 3c c3 bf
       0.009298984 -0.48155063 0.16837603 -1.5252987
000180 de 66 c5 c0 9d 2b ca bf 4e f9 62 3e 05 8b 65 bf
       -6.168807 -1.579456 0.22165415 -0.8966525
000190 80 74 45 3d eb 3b 62 bf 7e fc 2b 3e 52 82 e8 bf
       0.048206806 -0.8837268 0.16795537 -1.8164771
0001a0 83 9d 2a c0 1b 99 22 c0 be 55 fc 3d 95 3e a3 be
       -2.6658638 -2.5405948 0.123210415 -0.31883684
0001b0 73 18 42 bd 83 93 51 bf a7 02 37 bd 3a 5e cd bf
       -0.047386598 -0.8186571 -0.044680264 -1.6044381
0001c0 65 7a 81 bf 2c 48 01 c0 cf 6f 4a 3e 72 f0 42 c0
       -1.0115477 -2.02003 0.19769214 -3.0459256
0001d0 46 8c a2 3d d9 04 f4 be 7a ec cc 3e e8 4c 22 c0
       0.07936911 -0.47659948 0.40024167 -2.535944
0001e0 90 76 09 c0 f5 1c ac bf 73 dd 1e bf 83 1a b8 be
       -2.1478615 -1.3446337 -0.62056655 -0.35957727
0001f0 4a 56 0e 3e ed 2d 73 bf e0 98 1e be b3 81 9c bf
       0.13900104 -0.9499195 -0.15488005 -1.2227081
000200 75 15 d1 be c8 63 14 bf 9f 91 c6 be 2f 71 db bd
       -0.40836683 -0.57964754 -0.38782975 -0.107149474
000210 5b de 90 3e d2 84 df c0 31 b6 88 3d bd 7f 49 c1
       0.28294644 -6.9849634 0.06675375 -12.593686
000220 67 f6 b4 c0 23 d3 96 bf 37 cd f3 3e d0 b1 0c bf
       -5.6550784 -1.1783184 0.47617504 -0.5495882
000230 c9 5e e2 be 7c 92 27 c0 d5 13 da be 84 1c ad bf
       -0.4421294 -2.6183157 -0.42593256 -1.3524327
000240 04 6d 85 c0 8e 7e 13 bf 35 1b 54 3e c6 b8 86 c0
       -4.1695576 -0.5761498 0.20713504 -4.2100554
000250 5e 07 ac 3e 4b 0a 03 bf 09 6b b1 3e 90 b2 41 c0
       0.3359937 -0.5118758 0.34651974 -3.0265236
000260 b2 ed 6d c0 7f 76 36 b9 45 c7 e2 bf b7 5c 24 bf
       -3.7176328 -0.00017401016 -1.7717062 -0.6420397
000270 b9 30 5b bf 8f c7 24 3f d7 86 a2 3e 38 2f 9c c0
       -0.8562122 0.64367 0.317435 -4.880764
000280 20 8e fe be ad 41 15 3f 60 fe 52 3e 2e e2 30 c1
       -0.49717808 0.5830334 0.20604849 -11.05522
000290 d0 3a e7 3e d4 6a b7 c0 20 06 d9 bf a4 99 25 c1
       0.45162058 -5.7317905 -1.6954994 -10.35001
0002a0 d2 79 18 3f ae fa ad bf 3a c0 e7 3a d3 a2 02 c1
       0.59560883 -1.3592126 0.0017681189 -8.164752
0002b0 f3 fb 25 3f 58 c1 5a c0 30 4d cb 3c 87 75 0b c1
       0.6483757 -3.4180508 0.02481708 -8.716193
0002c0 e8 f7 5e 3e 06 c9 a3 bf b2 fe 04 3f 3b 1f 23 c1
       0.21774256 -1.2795722 0.51951134 -10.195125
0002d0 5d 98 ea 3e 53 5a 7b c0 bb 45 17 bf fb c0 48 c0
       0.4581937 -3.927388 -0.59090775 -3.1367786
0002e0 4e ee 94 bf 3f e1 d6 be bf 5e 3e bf 17 e6 a0 3e
       -1.1635225 -0.41968724 -0.7436332 0.31425545
0002f0 07 69 b5 3d cc 7b d6 c0 91 9d f7 3c c0 0a 70 c0
       0.08857923 -6.702612 0.0302265 -3.7506561
000300 87 b5 ed be 16 1a ad bf 01 d2 a7 3e cb 8a e2 c0
       -0.46427557 -1.3523586 0.32777408 -7.0794425
000310 99 24 37 3f cc 11 f7 bf 56 29 45 3e d8 b0 b6 c0
       0.7154022 -1.9302306 0.1925405 -5.7090874
000320 89 86 13 c1 43 a5 0c c0 54 52 20 bf 5d 9e cc bf
       -9.2203455 -2.1975868 -0.6262562 -1.5985829
000330 7c 5a 35 be 48 fd 70 be c9 84 e0 3e 5d 95 a9 bf
       -0.17710298 -0.23534119 0.43851307 -1.3248707
000340 18 92 14 c0 98 f2 cc bf c1 8b fa 3e 65 6f 4b c0
       -2.3214169 -1.6011534 0.4893475 -3.178674
000350 fd c3 0f 3e 4e d2 99 bf ab 80 82 3e 4b 36 fa bf
       0.14039607 -1.2017305 0.2548879 -1.9547819
000360 5f 03 be bf bd b7 5a c0 62 91 75 3f c5 7f 0a c0
       -1.4844779 -3.4174645 0.9592496 -2.1640484
000370 be 05 4e 3d 58 d6 c7 bf a8 ca ea bd 13 c2 f6 bf
       0.050298445 -1.5612288 -0.11464435 -1.9277977
000380 92 f5 29 bf 73 7c 60 c0 5f c9 1d 3f 7d 0b 11 c1
       -0.66390336 -3.5075958 0.6163539 -9.065305
000390 c8 42 01 3f db 77 8b bf f5 44 ff 3c b2 5e 43 c0
       0.50492525 -1.0895952 0.031160811 -3.0526547
0003a0 5e 01 c9 bf 37 c9 ae bf e3 60 6d be 2f 66 b5 bf
       -1.5703542 -1.3655156 -0.2318149 -1.4171809
0003b0 b7 2a 94 3e 27 6a 37 bf 1d 44 c2 be 83 12 98 bf
       0.2893884 -0.7164635 -0.3794259 -1.1880649
0003c0 98 61 b8 bc 92 0a b8 be 6f 54 ee 3d 14 4d 67 bf
       -0.022507474 -0.35945565 0.11637198 -0.90351987
0003d0 36 cc 94 3e f0 30 e1 c0 77 9a 0e be 63 b0 3f c1
       0.2906205 -7.037224 -0.13926111 -11.980563
0003e0 93 ef ca 3e fa d8 f6 3d a8 99 19 c0 34 e4 47 c0
       0.39635906 0.12053104 -2.4000034 -3.1233034
0003f0 b2 af 80 bc db f0 ba bf 62 a2 46 3e 65 75 59 c0
       -0.015708778 -1.4604753 0.19397882 -3.3977902

l3.bias f4 [1929]
000000 c8 97 25 c0 0c af 85 bf 65 02 63 c0 16 51 4f c0
       -2.587389 -1.0444045 -3.5470212 -3.239324
000010 12 3b fd bf 77 c6 06 c0 cb 8c 09 c0 1a a3 f8 bf
       -1.9783652 -2.1058633 -2.1492183 -1.9424775
000020 be 74 20 c0 95 ce 57 c0 9e c9 4c c0 27 64 3c c0
       -2.5071254 -3.3719838 -3.1998057 -2.9436128
000030 fe 1f 1b c0 16 ee 6a c0 89 5c f0 bf f9 25 80 c0
       -2.4238276 -3.6707816 -1.877824 -4.0046353
000040 ff b1 1b c0 98 61 3b c0 a3 1b 48 c0 32 bb b2 bf
       -2.432739 -2.9278316 -3.1266868 -1.3963377
000050 69 dc 17 c0 ef 9b 17 c0 d0 ae cf bf 39 02 3b c0
       -2.3728278 -2.3688924 -1.6225224 -2.9220107
000060 75 81 0e c0 a4 32 47 c0 e5 e7 0b c0 c9 d4 2f c0
       -2.2266514 -3.1124659 -2.1860287 -2.7473624
000070 97 1d b3 bf 9a 55 79 c0 8d 8d 36 c0 8e f2 00 bd
       -1.3993405 -3.8958497 -2.8523896 -0.03148132
000080 90 a1 38 c0 13 98 22 be 88 07 09 c0 3e 0c 61 c0
       -2.884861 -0.15878324 -2.1410847 -3.5163722
000090 94 43 c3 bf a6 73 f9 be c0 51 84 c0 c5 a1 5f c0
       -1.5254998 -0.48721045 -4.1349792 -3.4942486
0000a0 d5 0a d1 3e 7b 2f ed bf 1a 75 9c bd 1f 78 f7 3e
       0.40828577 -1.8530115 -0.07639523 0.48333833
0000b0 33 c1 ed bf 4b 35 77 be 08 c5 6e bf b1 4f 40 be
       -1.8574585 -0.24141423 -0.93269396 -0.187804
0000c0 40 c1 a5 bf e2 c9 cd bf 1b a2 1d be 0c ce 04 c0
       -1.29496 -1.6077235 -0.1539387 -2.075076
0000d0 a8 0c 69 c0 6b c9 6d 3f 75 ba b3 bc c6 67 44 c0
       -3.6413975 0.92885464 -0.021939496 -3.0688338
0000e0 a9 30 87 3f 5f 2f 8a 3f 0c e6 0a bf c9 9f 14 c0
       1.0561725 1.0795707 -0.54257274 -2.3222525
0000f0 d2 e1 4f c0 34 b7 0e c0 af c4 62 c0 f3 14 39 c0
       -3.248158 -2.2299318 -3.5432546 -2.8919036
000100 de 3e f5 bf 17 ff 1a bf 76 8a f0 bf 35 0f 6f bf
       -1.915981 -0.60545486 -1.8792255 -0.9338258
000110 2f 7c 09 c0 ad d0 d2 bf a2 ca 2c c0 bc c8 7a bf
       -2.1482046 -1.6469933 -2.6998677 -0.97962546
000120 09 af 8a bf 0d e5 0e c0 ba 58 94 c0 d9 e2 07 c0
       -1.0834666 -2.2327302 -4.635831 -2.1232207
000130 85 14 47 c0 78 5c ee bf 66 af 88 c0 a7 72 3f c0
       -3.1106274 -1.8621969 -4.271411 -2.9913728
000140 7d b9 8a 3f af 35 de bf 8e ab 14 c0 3f e7 2f c0
       1.0837857 -1.7360133 -2.3229709 -2.7484891
000150 40 16 3b c0 30 56 68 bf 3c 7b 13 c0 9c 18 17 bf
       -2.923233 -0.9075651 -2.3043966 -0.59021926
000160 bb 20 ff bf fd b0 42 c0 73 ba d2 bf 46 11 7a bf
       -1.9931864 -3.0420525 -1.646315 -0.9768261
000170 ff 65 08 bf 71 a3 95 bf d4 be ca bf ec af 1e be
       -0.53280634 -1.1690503 -1.5839486 -0.15496796
000180 b6 f8 ee bf 26 81 8f 3f 96 b3 2b c0 1a 97 38 c0
       -1.866965 1.1211288 -2.682836 -2.8842225
000190 06 c8 66 c0 a8 8d 81 bf 53 9c 61 c0 97 12 3e c0
       -3.6059585 -1.0121355 -3.5251663 -2.9698846
0001a0 6c 48 55 c0 00 0d 31 c0 21 93 30 c0 0a 0c 3f c0
       -3.3325453 -2.7664185 -2.75898 -2.9851098
0001b0 10 d1 14 c0 f4 3e de bf a6 a0 8a c0 95 fb eb bf
       -2.3252602 -1.7362962 -4.3321104 -1.8436152
0001c0 47 f5 63 c0 89 97 38 c0 11 d3 dd bf d2 91 49 c0
       -3.5618455 -2.884249 -1.7330037 -3.1495252
0001d0 ec 50 5f c0 f5 98 1c c0 72 5d 87 c0 59 5c 0d c0
       -3.489314 -2.4468358 -4.230157 -2.2087615
0001e0 eb d2 1f c0 22 ad 2c c0 e7 a4 87 c0 50 a3 57 c0
       -2.4972484 -2.6980672 -4.2388797 -3.3693428
0001f0 b1 3c 06 c0 93 37 30 c0 65 f2 24 c0 21 0d d2 bf
       -2.0974543 -2.753392 -2.5772946 -1.6410257
000200 83 ab 2e c0 c0 e2 40 c0 f1 a2 a7 c0 a9 cc 1f c0
       -2.7292182 -3.0138397 -5.2386403 -2.4968665
000210 59 ae ec be 9d ba 56 c0 55 77 97 c0 68 74 2c c0
       -0.46226767 -3.35514 -4.733317 -2.6946049
000220 c7 af 0b c0 44 0d da bf 2b 08 d7 bf 1f 34 6c bf
       -2.1826036 -1.7035298 -1.6799368 -0.9226703
000230 47 eb 98 bf f3 25 70 c0 f7 ec 62 c0 83 15 d8 bf
       -1.1946801 -3.7523162 -3.5457132 -1.6881565
000240 43 e9 93 bf fd 81 11 c0 b0 36 ad bf ff 45 e7 bf
       -1.1555561 -2.2735589 -1.3532314 -1.8068236
000250 7d ab 29 bf ac f7 29 c0 b7 1e fa bf 47 a7 11 c0
       -0.66277295 -2.6557417 -1.9540623 -2.2758348
000260 9b 3d 4a c0 08 51 35 c0 2d f6 6c c0 5d b8 7e c0
       -3.16001 -2.8330708 -3.7025254 -3.9800026
000270 74 be 49 c0 72 20 87 bf ff 47 ef bf b0 f7 39 c0
       -3.1522493 -1.0556777 -1.8693846 -2.9057426
000280 8c b7 24 c0 7c 1b 44 c0 22 ee f2 bf d1 69 3b c0
       -2.5737028 -3.0641775 -1.8978922 -2.9283335
000290 48 85 25 c0 b1 0a ed bf ba d8 19 c0 c7 65 3b bf
       -2.5862598 -1.8518888 -2.403853 -0.73202175
0002a0 0e be 0c c0 8c 56 1a c0 48 89 31 bf c0 a4 86 3f
       -2.1991 -2.4115324 -0.693501 1.0519028
0002b0 84 6b b8 bf 1b d7 30 bf 09 dd ad bf 4e 4e d6 be
       -1.4407811 -0.69078225 -1.358308 -0.41856617
0002c0 c7 68 d9 bf be 7b 7b 3f d2 80 00 c0 f1 2c 91 bf
       -1.69851 0.9823569 -2.0078626 -1.134184
0002d0 3f b3 08 c0 35 2e 87 be c7 b5 46 c0 de 60 8d c0
       -2.1359403 -0.2640244 -3.1048448 -4.4180746
0002e0 3d 60 85 c0 ba a3 57 c0 fa f9 da bf d7 1d 4f c0
       -4.167998 -3.369368 -1.7107537 -3.2361963
0002f0 05 81 66 c0 70 3f 81 c0 fe 31 78 c0 b1 91 50 c0
       -3.6016247 -4.038994 -3.8780513 -3.2588923
000300 5a dc 50 bf bf e8 d0 be 9b ec 85 3e d5 15 16 bf
       -0.8158623 -0.4080257 0.26157078 -0.58627063
000310 be 19 9a be 6f df 3c c0 7b 57 7d c0 cf 57 aa be
       -0.30097765 -2.9511373 -3.9584644 -0.33270118
000320 bf 37 1a c0 1f 8f 2f bf cf 16 6b c0 e5 07 75 c0
       -2.4096525 -0.6857776 -3.6732671 -3.8286068
000330 51 75 a3 c0 ca 66 86 c0 eb 6a 49 c0 2a 68 e3 bf
       -5.108071 -4.2000475 -3.1471508 -1.7766163
000340 10 97 16 c0 92 b5 2b c0 f7 4e 21 c0 f8 cf 91 bf
       -2.3529701 -2.6829572 -2.5204446 -1.1391592
000350 d0 65 6e c0 90 b0 98 c0 82 fc 15 c0 b4 d9 9b c0
       -3.7249641 -4.771553 -2.3435369 -4.870325
000360 72 e5 08 c0 5c e3 64 c0 66 cc 22 c0 21 b9 35 3f
       -2.1390042 -3.576377 -2.5437255 0.7098561
000370 42 de 07 bf 0c 08 8d 3f 99 bc 57 bd 2d 25 85 bc
       -0.53073514 1.1018081 -0.052670095 -0.016253078
000380 a8 d6 90 be f1 29 08 c0 98 83 e7 bf 6c b2 12 c0
       -0.2828877 -2.12756 -1.8087034 -2.29214
000390 76 08 e6 3f 0d 5a c8 3f d7 d0 54 c0 c8 8e 6c c0
       1.7971332 1.5652481 -3.3252466 -3.6962147
0003a0 c0 4c 8d be 11 7b c0 bf 6f 4e 8c 3f d4 15 7e bf
       -0.27597618 -1.5037557 1.0961436 -0.9925206
0003b0 c2 c7 03 3f 58 ac 3e 3f e5 1c c6 be a5 74 57 3f
       0.5147668 0.74481726 -0.3869392 0.8416236
0003c0 6f d9 b1 3f 11 9d cf 3f 8e cb b1 3f 8a 21 fc 3e
       1.389448 1.6219808 1.3890245 0.49244338
0003d0 f9 b2 69 3f 93 e7 4a 3f 56 4f 8e 3e 88 9d e8 be
       0.91288716 0.79259604 0.27794904 -0.45432687
0003e0 95 1b bb 3f 4e 4a c3 be a9 83 47 3e 7c 47 60 3f
       1.4617792 -0.38142627 0.19483818 0.87609076
0003f0 f3 e7 fd 3f 61 b4 c1 be b6 8a 64 3f 17 22 95 3f
       1.983641 -0.3783293 0.89274156 1.1651028
